…
orker number to avoid potential slowness/freeze if necessary.\n","  warnings.warn(_create_warning_msg(\n","/usr/local/lib/python3.10/dist-packages/transformers/optimization.py:391: FutureWarning: This implementation of AdamW is deprecated and will be removed in a future version. Use the PyTorch implementation torch.optim.AdamW instead, or set `no_deprecation_warning=True` to disable this warning\n","  warnings.warn(\n"]},{"output_type":"execute_result","data":{"text/plain":["BertForSequenceClassification(\n","  (bert): BertModel(\n","    (embeddings): BertEmbeddings(\n","      (word_embeddings): Embedding(28996, 768, padding_idx=0)\n","      (position_embeddings): Embedding(512, 768)\n","      (token_type_embeddings): Embedding(2, 768)\n","      (LayerNorm): LayerNorm((768,), eps=1e-12, elementwise_affine=True)\n","      (dropout): Dropout(p=0.1, inplace=False)\n","    )\n","    (encoder): BertEncoder(\n","      (layer): ModuleList(\n","        (0-11): 12 x BertLayer(\n","          (attention): BertAttention(\n","            (self): BertSelfAttention(\n","              (query): Linear(in_features=768, out_features=768, bias=True)\n","              (key): Linear(in_features=768, out_features=768, bias=True)\n","              (value): Linear(in_features=768, out_features=768, bias=True)\n","              (dropout): Dropout(p=0.1, inplace=False)\n","            )\n","            (output): BertSelfOutput(\n","              (dense): Linear(in_features=768, out_features=768, bias=True)\n","              (LayerNorm): LayerNorm((768,), eps=1e-12, elementwise_affine=True)\n","              (dropout): Dropout(p=0.1, inplace=False)\n","            )\n","          )\n","          (intermediate): BertIntermediate(\n","            (dense): Linear(in_features=768, out_features=3072, bias=True)\n","            (intermediate_act_fn): GELUActivation()\n","          )\n","          (output): BertOutput(\n","            (dense): Linear(in_features=3072, out_features=768, bias=True)\n","            (LayerNorm): LayerNorm((768,), eps=1e-12, elementwise_affine=True)\n","            (dropout): Dropout(p=0.1, inplace=False)\n","          )\n","        )\n","      )\n","    )\n","    (pooler): BertPooler(\n","      (dense): Linear(in_features=768, out_features=768, bias=True)\n","      (activation): Tanh()\n","    )\n","  )\n","  (dropout): Dropout(p=0.1, inplace=False)\n","  (classifier): Linear(in_features=768, out_features=3, bias=True)\n",")"]},"metadata":{},"execution_count":16}]},{"cell_type":"code","source":["from transformers import AdamW, get_linear_schedule_with_warmup\n","\n","# Define the maximum sequence length\n","MAX_LEN = 512\n","\n","def preprocess_data(data, tokenizer, max_length):\n","    # Create empty list to store the encoded inputs and labels\n","    encoded_inputs =
…
